trained_model/MLP_10thMay.model (torch_old, 32136 bytes, 6 tensors)

layer1.weight f4 [100, 24]
-0.16131943 -0.010025104 -0.007272495 -0.0014389001 -0.005970451 -0.0063808924 3.650572e-05 0.0080266455
0.009763689 -0.0050492263 -0.0021270362 -0.0436477 -0.0035994733 -0.018211693 0.0036504162 0.0046538706
-0.0032996137 -0.0014839796 0.0006660576 0.00632713 0.006764463 -0.7293081 0.5293046 -0.5222168
-0.47222137 -0.10277807 0.14883012 0.000883983 -0.00028480357 -0.01040063 0.021787615 -0.0028130214
0.12494704 0.005938663 -0.012610383 -0.15476175 -0.1154937 -0.048646223 0.013370203 0.018576523
0.024433535 0.002952089 -0.0066340435 -0.01144012 -0.013178704 -0.78268117 -0.007535665 -0.49094984
-0.8901894 -0.012433035 -0.014569284 -0.0048079994 -0.010490487 -0.0009401045 -0.004564166 -0.008184699
-0.0068573835 0.010757091 0.011178218 -0.03515862 0.0046382044 0.042994015 -0.016828978 0.0017025396
-0.010347219 0.007562172 -0.019059543 -0.0121333 -0.008802739 0.25604877 0.4986885 0.7927726
0.098199986 -0.005243152 -0.0068436763 -0.010049908 0.0029824036 0.0013442406 0.002845272 0.0057883984
0.005237555 -0.005463451 -0.00039181422 0.004690659 -0.0036491288 0.01725815 -0.004991606 0.0013536907
0.0041360627 -0.00027237087 -0.004309115 0.0010163527 0.0145577425 0.9784601 0.8547872 0.032412417
0.113808274 -0.2879825 -0.12294602 0.17343442 0.021194588 0.03376468 -0.043129783 0.051541246
-0.06457959 -0.0009866892 0.082452774 -0.03989215 0.21016352 0.7591756 -0.039074473 0.03868353
-0.11884273 0.0697747 -0.45749116 -0.03066778 0.00046280993 0.09637163 -0.20691444 -0.16893505
0.4879919 -0.030593209 -0.028715314 -0.022273181 0.004392408 0.002335701 0.0054983287 0.023025421
0.06626018 0.01742477 -0.004041874 -0.19368102 0.0045900987 0.014229746 0.0031719212 0.012650233
0.030704651 0.0038774945 0.028764281 0.00095667836 -0.023040637 -0.2642264 -0.48531464 1.0104029
-0.41211465 -0.048946105 -0.02832042 0.019398054 -0.0031643114 -0.003720047 -0.0173954 0.0043405304
-0.009067356 0.05456007 -0.025776992 0.050336357 0.07595367 0.13209148 -0.021588465 0.0012610804
-0.012410016 -0.028507702 -0.008492078 -0.011505241 0.018144058 0.4385017 -0.19532086 -0.5959442
-0.347369 0.0003974156 0.02230785 -0.009333281 -0.012818262 -0.013415801 -0.0045275236 0.014098121
0.029622369 -0.004524297 -0.016365694 -0.016591577 -0.009963432 -0.01827805 -0.00031091072 0.0028644765
-0.0021391115 0.02155403 0.014279961 0.0042214138 0.00059878884 -0.42242232 -0.58284694 -0.88272464
0.013417844 0.041861173 0.04061563 -0.010712697 -0.010631307 -0.0027797052 0.015922816 -0.023887763
-0.09630068 -0.024872541 0.0073841 0.0033549247 -0.0037997602 -0.002909652 0.0933882 -0.0025867722
-0.008716333 0.0015688135 -0.009304465 -0.008737118 0.0379232 -0.7258437 0.51830643 0.25187466
-1.0638809 -0.017011646 0.0081635285 0.00928828 0.0015921663 0.0033767046 -0.0061771017 0.008158762
0.018570788 -0.008322256 0.0006028692 -0.0013649231 -0.043431237 0.01293119 -0.020155307 0.0064569446
0.011075863 -0.0022599874 0.020145867 -0.006403875 2.7608039e-05 0.5431035 0.038882814 0.35277432
-1.104885 0.011193917 0.025815217 0.006581163 -0.00700723 0.002980591 0.0016702389 -0.022987068
-0.010337554 0.010088697 -0.003796259 0.049296428 -0.0074569765 -0.017648028 0.013537639 0.00069307676
00000000: ec30 25be 5540 24bc 1c4e eebb 7a99 bcba
00000010: c6a3 c3bb ce16 d1bb b81d 1938 3182 033c
00000020: e1f7 1f3c fb73 a5bb bf65 0bbb eec7 32bd
00000030: 24e5 6bbb b030 95bc d23b 6f3b 7f7f 983b
00000040: 553e 58bb 1882 c2ba 5e9a 2e3a d053 cf3b
00000050: 6ea8 dd3b f0b3 3abf 8280 073f 00b0 05bf
00000060: 00c7 f1be 4f7d d2bd ec66 183e 18bb 673a
00000070: b051 95b9 6767 2abc f17b b23c ab5a 38bb
00000080: 3ce4 ff3d 1e99 c23b c89b 4ebc dd79 1ebe
00000090: f687 ecbd 4341 47bd b20e 5b3c cb2d 983c
000000a0: d628 c83c d677 413b 6462 d9bb 576f 3bbc
000000b0: 7eeb 57bc cb5d 48bf bded f6bb c75d fbbe
000000c0: 74e3 63bf eeb3 4bbc 02b4 6ebc 6c8c 9dbb
000000d0: 4be0 2bbc 5871 76ba 008f 95bb 1e19 06bc
000000e0: e7b3 e0bb 833e 303c d824 373c 7c02 10bd
000000f0: 14fc 973b 7e1a 303d eddc 89bc c027 df3a
00000100: 6287 29bc 19cc f73b c222 9cbc c0ca 46bc
00000110: 5d39 10bc d318 833e 1954 ff3e 25f3 4a3f
00000120: 131d c93d bfce abbb eb40 e0bb 5fa8 24bc
00000130: 6e74 433b 3b31 b03a be77 3a3b 9bac bd3b
00000140: cc9f ab3b c006 b3bb 6a6c cdb9 1ab4 993b
00000150: 3926 6fbb f760 8d3c a090 a3bb 536e b13a
00000160: cf87 873b 00cd 8eb9 7a33 8dbb 2337 853a
00000170: 9983 6e3c 5c7c 7a3f 55d3 5a3f e2c2 043d
00000180: 5014 e93d 7172 93be 1fcb fbbd cb98 313e
00000190: 46a0 ad3c d54c 0a3d dba8 30bd ea1c 533d
000001a0: 4e42 84bd cc53 81ba 00dd a83d f365 23bd
000001b0: 1b35 573e 5559 423f 8e0c 20bd 9f72 1e3d
000001c0: d163 f3bd 0ae6 8e3d 483c eabe ff3a fbbc
000001d0: 4ca5 f239 7d5e c53d 61e1 53be 4ffd 2cbe
000001e0: 13da f93e 9c9e fabc 613c ebbc 3f76 b6bc
000001f0: 30ee 8f3b 8f12 193b 532b b43b cf9f bc3c
00000200: 6bb3 873d 64be 8e3c b271 84bb 5154 46be
00000210: 8a68 963b e123 693c 02e0 4f3b ec42 4f3c
00000220: 5288 fb3c 901d 7e3b 12a3 eb3c 99c9 7a3a
00000230: b8bf bcbc af48 87be 297b f8be e254 813f
00000240: b100 d3be b67b 48bd 3a00 e8bc abe8 9e3c
00000250: 5660 4fbb 08cc 73bb cc80 8ebc 023b 8e3b
00000260: 3f8f 14bc 617a 5f3d 452a d3bc 7f2d 4e3d
00000270: 998d 9b3d fd42 073e 4bda b0bc d64a a53a
00000280: 6153 4bbc fc88 e9bc 5b22 0bbc 7a80 3cbc
00000290: d9a2 943c 4b83 e03e 3102 48be cd8f 18bf
000002a0: 59da b1be 385c d039 f4be b63c 9eea 18bc
000002b0: b003 52bc f3cd 5bbc 9f5b 94bb cefb 663c
000002c0: 9caa f23c 8e40 94bb 5911 86bc 0feb 87bc
000002d0: aa3d 23bc d9bb 95bc bb01 a3b9 f1b9 3b3b
000002e0: 5630 0cbb 1492 b03c 7ff6 693c c953 8a3b
000002f0: 0af8 1c3a bd47 d8be 7535 15bf 3efa 61bf
00000300: 84d6 5b3c 9f76 2b3d 935c 263d 4f84 2fbc
00000310: ef2e 2ebc b72b 36bb 9170 823c 45b0 c3bc
00000320: 4a39 c5bd 80c1 cbbc 52f6 f13b 4cde 5b3b
00000330: 6605 79bb dcaf 3ebb 5042 bf3d d686 29bb
00000340: f3ce 0ebc a5a0 cd3a c171 18bc 2126 0fbc
00000350: 5b55 1b3d e5d0 39bf bbaf 043f b7f5 803e
00000360: 402d 88bf 025c 8bbc 52c0 053c df2d 183c
00000370: 3cb0 d03a b44b 5d3b 4969 cabb 54ac 053c
00000380: c421 983c 125a 08bc de09 1e3a 38e7 b2ba
00000390: f4e4 31bd 58dd 533c be1c a5bc c794 d33b
000003a0: 8977 353c 4c1c 14bb f208 a53c 99d7 d1bb
000003b0: d097 e737 d508 0b3f 9643 1f3d d69e b43e
000003c0: df6c 8dbf b166 373c 6f7a d33c cca6 d73b
000003d0: e89c e5bb 0556 433b ebeb da3a 604f bcbc
000003e0: d85e 29bc 104b 253c a8ca 78bb 0deb 493d
000003f0: a759 f4bb 9992 90bc f9cc 5d3c 98af 353a

layer1.bias f4 [100]
-0.9690045 -0.52284604 -0.50408 -0.88099676 -0.43494993 -0.36625287 -0.8484264 0.13323337
-0.6549835 -0.7200162 -0.745259 -0.7936514 -0.72710735 -0.45784467 -1.0328184 -0.32133558
-0.72848326 -0.7614371 -0.7518712 -1.060488 -0.5938798 -1.0332763 -1.1579429 -0.24183305
-0.22808187 -0.49614012 -0.75603616 -0.35875082 -0.13364077 -0.35835293 -0.371018 -0.989857
-0.18296416 0.29923537 -0.67027724 -0.5330023 -0.76991934 -0.21669872 -0.78435695 0.087833576
-0.44200075 -0.3378735 -0.9151324 -0.6835421 -0.8328713 -0.59441763 -0.30437282 -0.4716313
-0.10964791 -0.59890443 -0.4613343 -0.96219665 -0.47092214 -0.32924286 -0.7863522 -0.9526908
0.14404932 -0.6189256 -0.45749646 -0.7499905 -0.512008 -0.5317181 -0.8179945 0.46949196
-0.041051902 -0.9360458 -0.49103007 -0.9461955 -0.8626439 -0.81133175 -0.48562843 -0.8268461
-0.83293605 0.2671853 -0.13079315 -0.7151138 -1.0538715 -0.06974438 0.4606324 -0.7012225
-0.5520687 -0.31683916 -0.25410917 -1.022204 -0.5811479 -0.27295315 -0.4110954 -0.7365655
-0.05362394 -0.29639044 -0.28452492 -0.23899803 -0.38958243 -0.9572432 -0.29155523 -0.2599828
-0.32095063 -0.9499234 -0.87953657 0.3948203
00000000: ae10 78bf 3dd9 05bf 630b 01bf 0189 61bf
00000010: c2b1 debe 7f85 bbbe 7932 59bf 546e 083e
00000020: 00ad 27bf fb52 38bf 4bc9 3ebf bd2c 4bbf
00000030: b523 3abf 9e6a eabe 6533 84bf 1986 a4be
00000040: e17d 3abf 8bed 42bf a27a 40bf 12be 87bf
00000050: 8208 18bf 6642 84bf 7937 94bf 15a3 77be
00000060: 4b8e 69be 1406 febe 968b 41bf 30ae b7be
00000070: 20d9 08be 097a b7be 12f6 bdbe 4567 7dbf
00000080: f55a 3bbe 6135 993e 4a97 2bbf d772 08bf
00000090: 6f19 45bf 45e6 5dbe 9ecb 48bf 17e2 b33d
000000a0: ec4d e2be c1fd acbe 1e46 6abf 9dfc 2ebf
000000b0: 0e37 55bf c12b 18bf c1d6 9bbe a879 f1be
000000c0: 158f e0bd cd51 19bf 0234 ecbe 8552 76bf
000000d0: b51c f1be 8592 a8be 614e 49bf 8be3 73bf
000000e0: aa81 133e e871 1ebf fa3c eabe 61ff 3fbf
000000f0: f512 03bf ad1e 08bf 1668 51bf 4061 f03e
00000100: 0a26 28bd b3a0 6fbf 4b68 fbbe de39 72bf
00000110: 3bd6 5cbf 70b3 4fbf 4aa4 f8be 30ac 53bf
00000120: 4c3b 55bf 83cc 883e a4ee 05be b311 37bf
00000130: 43e5 86bf 24d6 8ebd 03d8 eb3e 5183 33bf
00000140: 6054 0dbf be38 a2be 991a 82be 95d7 82bf
00000150: 1cc6 14bf 84c0 8bbe 197b d2be 8e8f 3cbf
00000160: c7a4 5bbd 7dc0 97be 40ad 91be e6bb 74be
00000170: 5977 c7be e40d 75bf ba46 95be 771c 85be
00000180: a453 a4be 2e2e 73bf 4f29 61bf e325 ca3e

layer2.weight f4 [50, 100]
0.31353363 0.13091287 0.016689489 0.09225444 -0.10881253 0.0037290577 0.28553942 0.0069559915
0.0006439208 -1.1254038 -0.020721111 -0.41244888 -0.3545964 -0.015172634 0.053133857 0.017482277
0.0062830388 0.06467743 0.093195274 -0.09111541 -0.1502039 -0.8627273 1.401922 -0.52104676
0.02658822 0.008694271 0.110533714 -2.917934 0.046196565 0.039488353 -0.052630883 -1.9149601
-0.039719943 0.020084096 -0.22187808 -0.029816382 -0.037211284 -0.07853825 -0.5198793 -0.0063538854
-0.059905823 0.0340548 -1.7840171 0.13008527 0.08178183 0.087965295 -0.0830209 -0.12647355
0.030629968 0.17378551 0.06807045 0.047749095 -0.017655866 -0.0010179569 0.00957873 0.047777764
-0.006319415 -0.0077067623 -0.023636121 0.1675634 -0.024632303 -1.1021394 0.12546676 -0.010959233
0.027552458 0.043537147 -0.5108555 -0.0006671814 -0.23698382 0.031111889 -0.017470721 0.25685582
-0.008336376 0.0087007675 -1.4455702 0.058739517 0.5249916 0.022613399 0.00074659684 0.08749616
-2.2655075 -0.6979611 -0.18768297 -0.42150036 -0.18366975 -0.16832429 0.00060962123 -0.5472338
0.036094233 -0.40757298 0.17706682 0.027423678 -0.08882185 0.22867738 -0.08930653 -0.4256889
-0.033722457 0.031215196 -0.5973909 0.006300862 -0.13898692 -0.08061254 0.020455873 -0.6913742
-0.18712828 0.04291179 -0.25075036 -0.045704562 -0.54567134 0.27110213 -0.08332537 0.44480583
-0.5194521 0.0665709 -1.0937277 0.2329996 -1.2299036 -0.93933284 -1.2591993 0.30442968
-0.10252857 0.37287316 -0.52854145 0.0054459926 -0.051335715 -0.2278406 -0.6630981 -0.047824975
-0.12364244 -0.11655072 0.053526673 -0.7887142 0.021101102 -0.02670968 -0.032859746 0.14953774
0.08305649 0.04895734 0.36457318 -0.005981032 -0.12684959 0.027291277 -0.7365406 -0.89348537
0.074017026 0.1437337 0.056424763 -0.46133435 -0.0013359747 0.077485085 -0.08022417 -0.2024149
0.07495846 0.006004892 0.05570505 -0.35234424 -0.09128751 0.2909244 0.00471775 -0.6857613
-0.104251936 -0.13486513 -0.33214173 -0.0023396357 0.01649998 0.4203696 -0.092865855 -0.5186691
0.67700565 -1.8083736 0.052024 -0.26450768 0.4136264 -0.038815513 -0.014670756 0.019549493
-0.797223 0.13464907 -0.0068391436 -0.13507871 -0.038155045 0.18157426 -0.057087563 0.22499369
-0.3261753 -0.014087728 0.08333939 -2.01671 0.0014802581 -0.010022233 -0.36374313 -0.023619093
-0.027474355 0.056130238 0.027649788 0.21352006 0.17226039 0.121656455 0.37038335 -0.04398653
-1.0872257 0.009258197 0.017668841 0.07962518 -0.13670534 -0.009526085 -1.1877252 0.008447418
-0.0650753 -2.580483 1.7464443 0.10922003 0.04669904 -0.04872553 0.02539387 -0.10712707
-0.11630385 0.009709531 -0.090641655 -0.045566257 -0.0033750879 -0.46181595 -2.0349844 0.037009705
0.04417206 0.07618443 0.14124602 -0.8857968 0.053259328 0.044417508 -2.9314928 0.19377153
-0.29603443 -0.018234445 0.05894563 -0.0010131878 -0.037761096 -0.31461114 0.0386009 -0.038513526
0.0330076 0.024652602 -0.46691132 0.026519123 -0.0015743192 -0.21108885 -0.4774996 0.06384166
0.0074955923 -0.021417173 -0.36101457 -2.2771084 -0.03765262 -0.05265608 -0.05262501 -2.53102
00000000: 7b87 a03e 060e 063e 65b8 883c e5ef bc3d
00000010: 1bd9 debd 3563 743b 3932 923e 16ef e33b
00000020: cbcc 283a 3b0d 90bf 52bf a9bc 802c d3be
00000030: a98d b5be a496 78bc e3a2 593d fe36 8f3c
00000040: f3e1 cd3b 9a75 843d 2add be3d b79a babd
00000050: 0dcf 19be b2db 5cbf 2e72 b33f 5263 05bf
00000060: 8acf d93c 6a72 0e3c 805f e23d 6ebf 3ac0
00000070: 9c38 3d3d 8abe 213d 7b93 57bd 6a1d f5bf
00000080: 61b1 22bd 6787 a43c 0234 63be 7c41 f4bc
00000090: dc6a 18bd a9d8 a0bd cf16 05bf 4134 d0bb
000000a0: cf5f 75bd 0c7d 0b3d ac5a e4bf 1335 053e
000000b0: 3b7d a73d 2627 b43d dd06 aabd 4882 01be
000000c0: b3eb fa3c d4f4 313e 8568 8b3d 8e94 433d
000000d0: 09a3 90bc f76c 85ba 1bf0 1c3c 9eb2 433d
000000e0: 1813 cfbb 0289 fcbb 8aa0 c1bc bd95 2b3e
000000f0: afc9 c9bc e712 8dbf 5c7a 003e 5b8e 33bc
00000100: b1b5 e13c 0254 323d 6dc7 02bf c9e5 2eba
00000110: e3ab 72be 5cde fe3c c21e 8fbc 9b82 833e
00000120: 4c95 08bc aa8d 0e3c 7208 b9bf d998 703d
00000130: d965 063f bc3f b93c 44b7 433a 3031 b33d
00000140: 13fe 10c0 94ad 32bf f72f 40be e5ce d7be
00000150: ec13 3cbe 345d 2cbe fdce 1f3a 8417 0cbf
00000160: 8cd7 133d 68ad d0be 0151 353e 9fa7 e03c
00000170: 3be8 b5bd 672a 6a3e 58e6 b6bd e5f3 d9be
00000180: 8f20 0abd 03b7 ff3c 9cee 18bf 7677 ce3b
00000190: 9652 0ebe 3018 a5bd 1393 a73c e6fd 30bf
000001a0: 8e9e 3fbe 46c4 2f3d 5a62 80be b534 3bbd
000001b0: 1eb1 0bbf e6cd 8a3e 7ea6 aabd 97bd e33e
000001c0: d0fa 04bf 5356 883d 45ff 8bbf 7297 6e3e
000001d0: 7b6d 9dbf 1e78 70bf 712d a1bf 35de 9b3e
000001e0: 80fa d1bd 3be9 be3e 7e4e 07bf 4c74 b23b
000001f0: 6645 52bd 0c4f 69be ccc0 29bf 1fe4 43bd
00000200: 3f38 fdbd 25b2 eebd c93e 5b3d 2ce9 49bf
00000210: 38dc ac3c 42ce dabc f197 06bd 6c20 193e
00000220: 8519 aa3d 7e87 483d 56a9 ba3e 88fc c3bb
00000230: dce4 01be f591 df3c ed8d 3cbf 75bb 64bf
00000240: 3d96 973d ed2e 133e a71d 673d 0434 ecbe
00000250: df1b afba 80b0 9e3d 924c a4bd da45 4fbe
00000260: d283 993d afc4 c43b fa2a 643d 7766 b4be
00000270: f2f4 babd 0bf4 943e 5b97 9a3b 0d8e 2fbf
00000280: 0a82 d5bd 161a 0abe 7b0e aabe 9354 19bb
00000290: f72a 873c af3a d73e 7430 bebd 80c7 04bf
000002a0: 3e50 2d3f c978 e7bf 1e17 553d 8d6d 87be
000002b0: d7c6 d33e 04fd 1ebd 9c5d 70bc 4226 a03c
000002c0: ce16 4cbf 72e1 093e e51a e0bb 1352 0abe
000002d0: 7748 1cbd 9aee 393e a6d4 69bd bf64 663e
000002e0: 7300 a7be 37d0 66bc d8ad aa3d c711 01c0
000002f0: 3805 c23a 4b34 24bc 8a3c babe d47c c1bc
00000300: e611 e1bc d2e8 653d cf81 e23c 01a5 5a3e
00000310: 0765 303e 0527 f93d e3a2 bd3e 382b 34bd
00000320: 362a 8bbf b1af 173c 3fbe 903c 8712 a33d
00000330: 7cfc 0bbe 4c13 1cbc 6107 98bf 0a67 0a3c
00000340: 3346 85bd a226 25c0 7d8b df3f c0ae df3d
00000350: 7e47 3f3d 6c94 47bd ce06 d03c 7065 dbbd
00000360: b730 eebd ba14 1f3c 55a2 b9bd afa3 3abd
00000370: 9430 5dbb 2473 ecbe 2f3d 02c0 7d97 173d
00000380: c3ed 343d 9506 9c3d cca2 103e 94c3 62bf
00000390: 7426 5a3d 22ef 353d 949d 3bc0 0b6c 463e
000003a0: d391 97be 6760 95bc f970 713d f1cc 84ba
000003b0: 61ab 1abd b614 a1be fa1b 1e3d 5cc0 1dbd
000003c0: fa32 073d 41f4 c93c 000f efbe a23e d93c
000003d0: 6359 ceba ad27 58be d47a f4be 6bbf 823d
000003e0: 969d f53b 1173 afbc e7d6 b8be 25bc 11c0
000003f0: a239 1abd e7ad 57bd 538d 57bd 3bfc 21c0

layer2.bias f4 [50]
0.07293187 -0.028734744 0.17959985 0.6105931 0.04291175 0.45099565 0.29681614 -0.15063448
-0.27058747 -0.25445923 -0.5224998 0.4485383 0.209835 0.52571183 -0.3782976 -0.49365896
0.37365228 0.096254416 -0.19754073 -0.08606853 -0.06282968 0.21549286 -0.27636814 0.05536887
0.03722304 0.12615956 -0.29481855 -0.2871872 0.31271186 0.3070992 0.012493438 -0.6989933
0.21654834 0.3403266 0.2977919 0.22310254 0.63368094 -0.57301944 0.38977587 0.23475055
0.010340323 0.24520089 -0.12772022 -0.20870398 -0.08469989 0.030590566 0.29927093 0.51003253
0.096945405 0.38350692
00000000: 4e5d 953d 2065 ebbc 06e9 373e d44f 1c3f
00000010: 3bc4 2f3d e7e8 e63e 49f8 973e ed3f 1abe
00000020: 718a 8abe 7b48 82be 8cc2 05bf d0a6 e53e
00000030: fcde 563e 0d95 063f 39b0 c1be dec0 fcbe
00000040: 5a4f bf3e 0921 c53d 1e48 4abe b344 b0bd
00000050: d9ac 80bd 29aa 5c3e 2080 8dbe 78ca 623d
00000060: 3077 183d f92f 013e 75f2 96be 330a 93be
00000070: c51b a03e 1b3c 9d3e 47b1 4c3c 3af1 32bf
00000080: d9be 5d3e 4a3f ae3e 2e78 983e fe74 643e
00000090: ea38 223f 67b1 12bf b490 c73e 7362 703e
000000a0: 756a 293c f115 7b3e 17c9 02be 7fb6 55be
000000b0: 2377 adbd 1199 fa3c 0a3a 993e 7e91 023f
000000c0: 508b c63d 055b c43e

out_layer.weight f4 [4, 50]
-0.11294219 0.29128048 -0.90931827 0.6051653 -0.18385191 0.6237968 0.6866265 0.74766535
0.7163846 0.080042444 0.6421477 0.60570073 0.074390225 0.6440658 0.1672796 0.5340331
0.16804433 0.52640104 0.650395 0.21736346 0.21213926 -0.8439265 0.20230138 0.60323465
0.23628762 0.45837784 0.1902851 -2.0346708 -0.55330175 -0.011516001 0.27325198 0.2755764
0.06528891 -0.8795567 0.583143 -1.0372221 0.011258098 0.013084316 0.50751334 0.8584521
0.49863344 0.39550504 0.08156073 0.59529364 -1.3238974 0.43000433 -0.7214738 0.86757684
0.74313456 0.3916172 0.2436363 0.6120943 -0.19331485 0.9614649 -3.0631847 0.7150891
-3.7902944 -3.8365097 0.869345 -3.1667905 -2.4216433 0.47680977 -3.32313 0.5670345
-2.9627447 0.58350635 -0.8521511 0.6520439 -1.6715475 -3.6399703 -0.4365351 -0.43236017
0.2532652 -2.271409 1.337897 -2.9162896 0.7088147 -0.7409441 -0.70958954 -0.18389465
0.24349044 -2.4323983 0.79157186 0.2854501 -1.2909608 -2.102664 -2.8295875 -1.9958751
1.3477087 -3.1190157 -0.16300577 -4.021604 0.18577917 -0.52407825 0.12453519 0.697021
-1.1870303 1.1014427 -2.0136085 0.36444902 0.9332164 -1.6612527 1.9527053 -3.3918927
1.8779157 -3.4508486 -1.5725365 -0.5815492 -4.1650257 0.54089916 -2.1541765 -0.9823814
1.4034907 -3.3967679 0.8096018 -3.9480584 1.3520963 -1.4278946 -3.0405405 0.4457057
0.7749768 2.209443 0.042852696 -2.4804158 -3.3380535 0.2349748 -0.6392821 3.902243
1.819457 -2.7156818 0.16416353 0.3058637 -2.472418 2.2684698 -3.910399 3.402108
1.2728999 0.6296437 -2.6932027 -1.2357937 -2.9464238 -0.44230968 0.26230788 0.5127543
1.7211816 -3.7046275 1.995728 -3.2711217 -2.0263443 -0.07001844 -0.96968377 0.1271783
-0.5362571 -2.0791743 0.0046933023 0.03331781 1.5636892 1.0259517 0.54820985 0.74889
0.8486563 -2.1880658 0.5646906 -1.0922474 0.55465025 0.11682691 -0.74337274 -0.71217746
0.9366085 0.6622878 -0.63547325 -0.9662798 -1.2936087 1.3963767 0.2733458 0.68948674
-0.7085564 -2.8119633 -0.44128352 1.4655452 -2.132644 0.57268417 0.502582 -3.024585
1.6096033 -0.87883395 0.63515353 0.5730163 -1.0067277 1.6919663 0.6230954 1.1811292
-0.45526922 -0.7844358 -1.2361827 0.6566343 -0.588688 -0.5476979 1.1486579 -1.2758774
00000000: 3c4e e7bd b722 953e 15c9 68bf 1dec 1a3f
00000010: ad43 3cbe 26b1 1f3f c1c6 2f3f ff66 3f3f
00000020: fb64 373f 4bed a33d cb63 243f 340f 1b3f
00000030: e759 983d 7fe1 243f 584b 2b3e 65b6 083f
00000040: d013 2c3e 38c2 063f 4980 263f 8794 5e3e
00000050: 093b 593e 910b 58bf 1828 4f3e 966d 1a3f
00000060: 62f5 713e 80b0 ea3e 19da 423e 0c38 02c0
00000070: 2fa5 0dbf 9cad 3cbc afe7 8b3e 5a18 8d3e
00000080: 31b6 853d a12a 61bf dc48 153f b2c3 84bf
00000090: e373 383c 995f 563c 65ec 013f 84c3 5b3f
000000a0: e24c ff3e a37f ca3e 5009 a73d 2a65 183f
000000b0: 7875 a9bf 8729 dc3e 82b2 38bf 8419 5e3f
000000c0: 113e 3e3f 0d82 c83e cb7b 793e 36b2 1c3f
000000d0: 54f4 45be 9022 763f 380b 44c0 1410 373f
000000e0: 2f94 72c0 6089 75c0 658d 5e3f b2ac 4ac0
000000f0: 34fc 1ac0 6920 f43e 29ae 54c0 2c29 113f
00000100: 9c9d 3dc0 ac60 153f 9326 5abf 59ec 263f
00000110: 45f5 d5bf 46f5 68c0 8781 dfbe 505e ddbe
00000120: faab 813e c45e 11c0 3540 ab3f 7da4 3ac0
00000130: e174 353f 83ae 3dbf a9a7 35bf e14e 3cbe
00000140: 8f55 793e 6aac 1bc0 74a4 4a3f 8426 923e
00000150: 343e a5bf 0c92 06c0 f617 35c0 d678 ffbf
00000160: b881 ac3f f49d 47c0 fcea 26be fbb0 80c0
00000170: e53c 3e3e fe29 06bf 4e0c ff3d f86f 323f
00000180: 9cf0 97bf 13fc 8c3f f6de 00c0 1099 ba3e
00000190: 45e7 6e3f eea3 d4bf 3ff2 f93f c514 59c0
000001a0: 8b5f f03f b4da 5cc0 e048 c9bf 69e0 14bf
000001b0: e447 85c0 5e78 0a3f 07de 09c0 597d 7bbf
000001c0: 95a5 b33f a564 59c0 1042 4f3f fdac 7cc0
000001d0: 7e11 ad3f 40c5 b6bf 3798 42c0 8a33 e43e
000001e0: e164 463f 8467 0d40 4f86 2f3d 22bf 1ec0
000001f0: aba2 55c0 3c9d 703e fea7 23bf 59be 7940
00000200: f8e3 e83f bbcd 2dc0 7c1a 283e 2b9a 9c3e
00000210: 193c 1ec0 9c2e 1140 fa43 7ac0 23bc 5940
00000220: 62ee a23f 5430 213f 6f5d 2cc0 7d2e 9ebf
00000230: 3592 3cc0 6a76 e2be 384d 863e de43 033f
00000240: ae4f dc3f 9e18 6dc0 0474 ff3f 0f5a 51c0
00000250: a0af 01c0 d465 8fbd 323d 78bf 073b 023e
00000260: 2548 09bf 3111 05c0 46ca 993b 4278 083d
00000270: f826 c83f 6352 833f 7b57 0c3f 41b7 3f3f
00000280: 8a41 593f 4509 0cc0 908f 103f c3ce 8bbf
00000290: 8ffd 0d3f f242 ef3d ad4d 3ebf 4351 36bf
000002a0: 93c5 6f3f b18b 293f 60ae 22bf 1d5e 77bf
000002b0: f894 a5bf 79bc b23f fbf3 8b3e 3482 303f
000002c0: f463 35bf 35f7 33c0 eaef e1be fc96 bb3f
000002d0: 3d7d 08c0 6e9b 123f 37a9 003f cd92 41c0
000002e0: 7b07 ce3f 43fb 60bf 6c99 223f 32b1 123f
000002f0: 74dc 80bf 5a92 d83f 2e83 1f3f 3e2f 973f
00000300: 0c19 e9be c9d0 48bf 3c3b 9ebf 2f19 283f
00000310: 42b4 16bf ee35 0cbf 3907 933f f34f a3bf

out_layer.bias f4 [4]
-0.22525811 0.6102001 -0.28323182 -0.27834693
00000000: 10aa 66be 1336 1c3f c303 91be 7d83 8ebe
